data3.pth (torch, 141063 bytes, 6 tensors)

l1.weight f4 [77, 292]
000000 85 df f3 bc 9b a9 87 bd 52 8a 9a 3e 75 cc 07 bc
       -0.029769668 -0.066241466 0.30183655 -0.008288492
000010 ff 5d 9b bd dd db 19 3d ec 7e 1d 3c 41 28 ff 3d
       -0.07586288 0.037563194 0.00961278 0.1245885
000020 5c 01 16 3d 10 79 e4 3d 32 02 ec 3c 09 46 7d 3b
       0.03662239 0.11155903 0.02880964 0.003864648
000030 cc 37 41 3d fc 17 09 bd e7 85 d4 3b 7b 8f 46 3d
       0.047172353 -0.03347014 0.006485689 0.048476677
000040 c1 19 4c 3e bc fe 48 bc d0 f3 ca 3c c6 0d 12 3d
       0.199317 -0.012267765 0.024774462 0.035657667
000050 cc 58 20 be 5c 48 ab 3d 21 50 27 3e d3 a9 c0 3d
       -0.15658873 0.08363411 0.1633916 0.094073914
000060 e4 fe a5 bc a9 b9 0f 3e c7 ef c5 3d d0 54 4a 3d
       -0.020263143 0.14035667 0.096648745 0.04939729
000070 e4 fb 9c 3d 04 a6 03 3e f8 15 95 3d 55 ad 96 bd
       0.07665232 0.12856299 0.07279581 -0.07357279
000080 95 6c 96 3e 71 41 28 bc bf 26 48 3d 41 1d d3 3b
       0.29379717 -0.010269509 0.048865076 0.0064426963
000090 e9 08 f2 bc f7 2c 2a bd bc 1a 62 3e 4f 54 a6 3e
       -0.029545264 -0.041546788 0.22080511 0.32486197
0000a0 03 19 29 3e cb 37 22 be 95 ae 67 3d e0 58 31 3b
       0.16513447 -0.15841596 0.05656298 0.002706103
0000b0 a9 79 e5 3d 85 c1 3a 3e 3c e1 2b bd a8 83 4d bd
       0.112048455 0.18237884 -0.041962847 -0.050174385
0000c0 3a 5b a8 3d ed f7 00 3d b8 c0 8f 3d d3 3d cb 3d
       0.08220525 0.03148644 0.0701918 0.099239014
0000d0 3f b2 c4 bd b5 69 3d 3c b8 50 a9 bd 42 e3 5f bc
       -0.0960431 0.011560847 -0.08267349 -0.013665022
0000e0 9c 0d 50 3d d2 c7 a8 3d fa db 28 3d 76 14 f3 bd
       0.05079423 0.08241238 0.04122541 -0.11869137
0000f0 8c d0 09 bd 02 8d 3f bb 8a 82 ca 3d c4 0a 68 3c
       -0.03364615 -0.0029228334 0.098881796 0.014162723
000100 9b 9f 25 bc f3 2f a1 3e c5 23 46 3a 85 44 39 3e
       -0.010108854 0.31481895 0.00075584307 0.18092544
000110 72 9e ea 3e 48 d8 aa 3d 68 9b 13 bc 00 cc 40 3d
       0.4582401 0.083420336 -0.00900922 0.04706955
000120 cf e6 81 3e ef d1 8a bc f4 a6 cf 3c c0 ea ac 3d
       0.25371405 -0.016945807 0.025348164 0.084432125
000130 5a 8b 59 bd 7a c9 51 be c3 80 4c 3c 6a 66 f6 b9
       -0.05311141 -0.20487013 0.012481871 -0.0004699708
000140 42 8e 25 3d c8 e9 18 bd 12 64 b5 3c c0 d4 b0 bb
       0.04041887 -0.037332326 0.022142444 -0.0053964555
000150 51 b8 d9 3d 70 fa 62 3e 5f 35 3a 3d bc 5f 7e 3d
       0.10630859 0.22165847 0.045461055 0.06210302
000160 82 22 6a 3c af 3e 98 be 6e e1 d4 bc 01 be 56 3d
       0.014290454 -0.29735324 -0.0259864 0.052427296
000170 3e a5 4e 3d 6c e7 b4 bc 3c 1b 01 3d 0c d3 82 3c
       0.050450556 -0.022083007 0.031520113 0.015969776
000180 93 47 ae 3d ba 6b 4c bd e1 93 dc 3d 77 5b cb bc
       0.085097454 -0.049907424 0.10770393 -0.024823887
000190 2e 60 f5 3d d5 f1 38 3c 07 b2 4d 3e 6b 1e b9 bd
       0.119812354 0.011288126 0.20087443 -0.09039005
0001a0 ea 64 cc 3c 12 f0 02 3e 5d 71 8a bd 93 3e 34 be
       0.024950463 0.12786892 -0.067599036 -0.17601995
0001b0 a6 e1 c1 bd 11 0c 62 bd 5c b8 da bd f0 f9 d7 bd
       -0.09466867 -0.05518729 -0.10679695 -0.10545719
0001c0 a2 b7 1a bd ae 63 8a bd 07 c5 f4 bd 90 18 73 bd
       -0.037772782 -0.06757294 -0.119516425 -0.059349597
0001d0 2b d8 0c be 42 aa 65 bd af 51 e2 bc 8d 48 8a bc
       -0.13754337 -0.056070574 -0.02762684 -0.016880298
0001e0 42 82 15 bb a2 2e f9 bc d5 7b c4 3c 79 e2 05 bd
       -0.0022813235 -0.030417744 0.023984829 -0.032686684
0001f0 94 87 bc bd a9 17 a0 bd 52 8a ad bd fd 5e 93 bd
       -0.09205547 -0.07817013 -0.08473648 -0.07195852
000200 7a 75 ab bd 0b c7 e7 bd 33 c2 94 bd cf ae 8d bd
       -0.08372016 -0.11317261 -0.07263603 -0.06918108
000210 a2 d0 ad bd 34 4e cd bd 57 52 aa bd d8 a3 79 3d
       -0.08487059 -0.10024682 -0.08316486 0.06094727
000220 c1 be b3 3c 4f 5e 7e be f4 58 64 3d 4f 9c 58 3e
       0.021941544 -0.24840663 0.055748895 0.21153377
000230 6b 9d 16 bd 75 03 c6 bd 4e 78 a1 3d 86 bf 6e 3d
       -0.03677122 -0.09668628 0.078842744 0.05828812
000240 d5 a2 f6 3d 8a 8e c1 3e 8d 4d fa 3c 2a 11 18 3d
       0.120427765 0.3780406 0.030554557 0.037125744
000250 0f c7 31 bd 16 44 cd 3e 76 ef 99 bd ac bf 01 3e
       -0.043402728 0.40091008 -0.07516377 0.12670773
000260 96 d7 03 bd 22 0f 2b bd 05 de cf 3d ae 32 d0 3d
       -0.03218802 -0.04176248 0.10149769 0.101659164
000270 bf 8e 88 3e da 19 31 bc 0a 75 39 3d d2 77 09 3e
       0.26671407 -0.010809386 0.045277633 0.13424614
000280 5a 5c 17 3e b0 0b 95 3c 65 a6 c9 3d a9 18 cd 3d
       0.14781323 0.01819405 0.0984619 0.10014469
000290 5a c0 1b 3e 60 56 64 3d a9 da 15 bc 50 94 90 3d
       0.15210095 0.055746436 -0.009146371 0.07059538
0002a0 3b c6 bd 3d 4c eb a5 3d bc 10 41 3d 5c 1a d3 bc
       0.09266325 0.0810152 0.0471351 -0.025769405
0002b0 21 8e b2 3e c1 74 7c 3d 3f 0a 6c 3d 95 bc 4e 3d
       0.3487406 0.061634783 0.05762696 0.050472815
0002c0 4c d6 d9 3c 12 d5 03 3e d5 ae c8 3d 68 90 d0 3d
       0.026591443 0.12874249 0.097989716 0.10183793
0002d0 02 5c e2 3c af b1 88 3d e5 5b d8 bd ae 2d 1d bc
       0.027631763 0.066745155 -0.105644025 -0.00959341
0002e0 9c 70 85 3d 44 d1 83 3c 94 12 a7 bc 16 db 37 bc
       0.06515619 0.016090997 -0.0203946 -0.011221668
0002f0 d0 ad a3 3d 88 5d 37 3d 48 02 ca 3d 31 64 64 bd
       0.079921365 0.044766933 0.09863716 -0.055759612
000300 7e 44 4c 3d 4f d3 15 bd f2 44 20 bd a9 e6 37 3d
       0.049870007 -0.036578473 -0.03912825 0.04489771
000310 7b c8 7f 3d 3b d6 94 bd b0 cf 25 3e 5c c4 ce bd
       0.062447052 -0.07267424 0.16192508 -0.10096046
000320 b9 b6 47 bd 6d 20 8c bc ef 19 a6 bc 3f 96 9f 3d
       -0.048758242 -0.017105306 -0.020276038 0.07792329
000330 4a 38 5d bd ad 6c a1 3d 81 03 64 ba 1e 5d b8 3d
       -0.05400876 0.078820564 -0.0008698032 0.09002136
000340 f9 c0 1d 3d 48 4c d1 3d ef 3d 09 be 86 f0 4f bd
       0.03851411 0.102196276 -0.13402532 -0.05076649
000350 d5 12 d5 bc 0e c1 18 bd 13 07 60 3d 1e 40 33 3d
       -0.026009956 -0.037293486 0.054694247 0.04376232
000360 a4 f2 b3 3d 4b 31 bc 3b ed bc 7e bb 8a cd bc 3e
       0.087865144 0.005743181 -0.0038869933 0.36875564
000370 48 bc f0 bd 58 9d 39 3d a4 a7 8c bb dd 4a 15 3c
       -0.11754662 0.04531607 -0.0042924453 0.009112087
000380 4b f0 a8 3a 58 21 a9 bd be a9 62 bd 65 74 fd 3d
       0.0012888996 -0.08258313 -0.05533766 0.12375716
000390 74 68 e0 bd 0c 71 89 bd 0b 2e 34 be e3 11 3b bd
       -0.10957423 -0.06711015 -0.17595689 -0.045671355
0003a0 10 b4 4e 3c 51 a2 9e bc bf a3 90 bd a8 6d 12 bd
       0.012616172 -0.019364508 -0.07062482 -0.035749108
0003b0 ee 88 09 3d 62 8c b3 3d 9b c5 af bb af 4e 77 3d
       0.033577852 0.0876701 -0.0053641326 0.060377773
0003c0 5d 18 85 3d 8b 11 38 bd f0 78 bd 3d a5 a7 0b bc
       0.064987876 -0.044938605 0.092515826 -0.008523856
0003d0 18 31 41 3d ee 1e a2 3d b2 0b c7 bd 0f ae 0f be
       0.04716596 0.079160556 -0.097190276 -0.14031242
0003e0 e2 31 0c be a5 b3 3b 3e 02 ae 0f 3d c5 a3 0b bc
       -0.13690904 0.18330248 0.035078056 -0.008522932
0003f0 33 86 10 3d 65 08 01 3e 8a 34 b6 3c 3b 24 5c be
       0.035284232 0.12600859 0.02224185 -0.21498196

l1.bias f4 [77]
000000 94 e6 3e 3e b1 0e 9d 3e ea fb b6 3e 2f 98 b9 3e
       0.18642646 0.3067527 0.3573907 0.3624892
000010 d2 58 bc 3e 53 50 fa 3d 94 b6 c4 3e 39 23 9c 3e
       0.36786515 0.12222352 0.38420546 0.30495623
000020 a1 6e 96 3e 6b 35 7e 3e d9 0c b7 3e 02 79 9b 3e
       0.29381278 0.24825065 0.3575199 0.3036576
000030 c9 53 bc 3e 08 d8 41 3e 98 61 05 3f 5c c1 54 3e
       0.36782673 0.18930066 0.5210204 0.20776886
000040 a2 b7 73 3e 74 b0 42 3e 56 45 b9 3e ec 5a cb 3e
       0.23800519 0.19012624 0.36185712 0.39717805
000050 ea 97 f2 3e d5 26 bc 3e 36 56 b1 3e d1 b7 73 3e
       0.47381526 0.36748376 0.34636086 0.23800589
000060 5e 04 ba 3e a6 ef b6 3e a3 ee e7 3e 2f f1 40 3e
       0.36331457 0.35729712 0.45299253 0.18842004
000070 59 6b 06 3f 89 4f 9b 3e 3d 58 f3 3e 29 46 c8 3e
       0.5250755 0.30334118 0.47528258 0.39116028
000080 a6 99 c1 3e c4 3e a6 3e a3 3e 88 3e 3f 9e eb 3e
       0.37812537 0.3246976 0.26610288 0.4601917
000090 78 c1 fc 3e 50 96 01 3f 54 74 ea 3e 1c ef 8c 3e
       0.49366355 0.50619984 0.45791876 0.27526176
0000a0 1d bf 10 3f 0e 6f 0d 3f 0c f5 12 3f c6 b2 df 3e
       0.56541616 0.5524758 0.5740516 0.4369108
0000b0 c7 2c 85 3e f0 1a 10 3f 2f 40 db 3e 1b 61 81 3e
       0.26010725 0.56291103 0.42822406 0.25269398
0000c0 48 83 e3 3e af e5 f0 3e 2b 65 b8 3e 36 5b a8 3e
       0.44436097 0.47050235 0.36014685 0.32882088
0000d0 b8 eb 1d 3e 0f 46 a8 3e 9d 4f f2 3e 21 f5 e5 3e
       0.15421951 0.3286595 0.47326365 0.4491358
0000e0 e7 f9 6c 3e b1 0a b1 3e 86 a8 b9 3e ad ac a3 3e
       0.23142205 0.3457847 0.36261386 0.3196768
0000f0 e6 a2 59 3e 3d 25 f6 3e 70 af de 3d 81 18 b7 3e
       0.21253547 0.48075286 0.10873306 0.35760882
000100 b8 57 85 3e da 0a 0d 3f 1e b9 bd 3e 1c 23 5f 3e
       0.26043487 0.55094683 0.37055296 0.21790737
000110 a3 cc 92 3e e9 ab 98 3e 67 30 c5 3e 17 8b 8d 3e
       0.2867175 0.29818657 0.3851349 0.2764518
000120 b9 27 14 3f 03 a6 c3 3e e2 40 96 3e c8 65 a7 3e
       0.5787311 0.38212594 0.29346377 0.3269484
000130 c2 2e c8 3e
       0.39098173

l2.weight f4 [77, 77]
000000 28 d5 a5 3d ff bf 55 3c 13 c3 f0 3c ab 58 e1 3d
       0.08097297 0.013046264 0.029389894 0.1100324
000010 3b ea d8 bd 04 26 1d 3d 2b 78 29 3d 95 1b 2b be
       -0.10591551 0.038366333 0.041374367 -0.1670974
000020 fd 98 db bd a6 0e 15 3e 7b 31 7f be 4a 5c 01 3e
       -0.107225396 0.14556369 -0.24921219 0.12632862
000030 4c 49 0e 3e 45 cf 22 3e 91 a8 cb bd e4 cd 10 be
       0.13895148 0.1589938 -0.09944261 -0.14141041
000040 f6 86 45 3e d1 05 6d 3e 74 2f 2e 3e 3e 8c 8b bd
       0.19289765 0.2314675 0.1701029 -0.068138584
000050 66 2e 33 3e 12 35 84 3c bd 8a 0f be 2c 20 05 3e
       0.17498168 0.016138587 -0.14017768 0.13000554
000060 f7 91 9c 3e b9 9e 3e bd d8 a2 b2 bb c5 01 2e be
       0.30580112 -0.04653809 -0.0054515414 -0.16992863
000070 85 e5 a8 bd ca cb d7 3d 4d 21 5b 3d 79 fc 7f bd
       -0.082469024 0.105369166 0.053498555 -0.062496636
000080 9f d3 af 3c e0 bb 0b 3e 25 c0 a8 bb f1 7e 07 bd
       0.021463213 0.13645887 -0.0051498585 -0.033080045
000090 0e c1 92 bd 12 d5 70 3d 53 c6 07 3e d2 fc e7 bd
       -0.071657285 0.05879695 0.13259248 -0.113275185
0000a0 38 8c e8 3d 5f 7d 30 be 10 2d 01 3e 44 a8 03 3e
       0.113548696 -0.17235325 0.12614846 0.12857157
0000b0 cb 58 62 3e bc 79 1c 3e 86 f1 82 3e 2f 3a aa 3d
       0.22104184 0.15280813 0.25574893 0.08311879
0000c0 e2 91 b8 3d 24 93 47 3e 4d 5e 68 3b 31 a5 05 3d
       0.090122 0.19489723 0.0035456598 0.032628242
0000d0 c2 e0 bf 3d 83 75 b5 3e 10 80 ab 3e 13 e4 44 3d
       0.09369041 0.35441217 0.3349614 0.04806907
0000e0 2c d9 3f 3c da 4a db 3b 10 30 75 be c4 70 71 bd
       0.011709493 0.0066922726 -0.23944116 -0.058945432
0000f0 c3 50 80 3b 60 2e 79 bd 09 bf 72 bd 3a b0 b4 bd
       0.0039158775 -0.060835242 -0.059264217 -0.08822675
000100 d0 b7 f6 bc f2 d6 4d 3d 79 2d db 3c 27 e3 e3 bc
       -0.030116946 0.050253816 0.026755081 -0.027818276
000110 bd 8a a0 bd 5c 79 d6 bd 63 5f e5 bd e4 f8 82 3d
       -0.07838962 -0.10472366 -0.11199834 0.06395128
000120 2b ca bb 3d 76 e6 e4 3d 17 18 6d 3e 13 70 56 3e
       0.0916942 0.111767694 0.23153721 0.2094119
000130 49 f3 ff 3d 33 ba b5 be 83 9a 48 be d5 99 22 3d
       0.12497575 -0.3549362 -0.19590192 0.039697487
000140 73 70 6e 3d 2f 7c 16 be 82 56 26 3d 38 8a 2a be
       0.05821271 -0.1469581 0.040609844 -0.16654289
000150 35 20 82 3e 2f ea c9 3e 55 06 a5 bd 34 8d 55 3d
       0.25415197 0.3943648 -0.08057848 0.052136615
000160 58 09 a9 bc d3 52 1c be af 31 95 be 7c 1d c5 bd
       -0.020634338 -0.1526597 -0.29139468 -0.09624764
000170 88 2e 02 3f 65 bf 2a 3e 04 c1 50 3e ad 58 3e be
       0.5085225 0.16674574 0.2038613 -0.18588515
000180 d4 26 1f 3f ce 8f e7 3e 5b 84 e0 bd d9 f0 c3 3d
       0.6216862 0.45226902 -0.10962745 0.095674224
000190 cd b3 19 be 39 f8 85 ba 48 4f 88 3e 35 ed 97 3e
       -0.15009995 -0.0010221071 0.26622987 0.29673162
0001a0 1e c5 95 3e a0 ee bb 3e 43 fc e2 bd 90 4e 55 bc
       0.2925195 0.36705494 -0.11083271 -0.013019219
0001b0 f9 40 ea 3e 51 ff 22 3f 6e 55 3a 3e 8b 76 e0 ba
       0.45752695 0.6367083 0.18196651 -0.0017125172
0001c0 e7 5d 4c be 6d b8 10 3f 89 aa 64 3e fb 5b 5a 3d
       -0.19957696 0.5653141 0.22330679 0.053310376
0001d0 db 0b 81 3e fa c8 aa 3e 5f e2 de bb 27 9e 2f 3d
       0.25204358 0.33356458 -0.006801888 0.042875435
0001e0 79 50 d5 3e 9d 14 01 be 18 fd 59 3e e7 28 f6 bc
       0.41662958 -0.1260552 0.21287954 -0.0300488
0001f0 08 04 59 be 90 5a aa 3e a0 86 aa 3e e9 fa 2c bd
       -0.21192944 0.3327222 0.33305836 -0.042231474
000200 97 56 aa 3d c7 af b4 3d 98 10 bb 3c 89 56 cb bd
       0.08317297 0.08822589 0.022835061 -0.09928615
000210 17 4d bf 3d 3c fb 02 bf d8 8c c3 3d 36 96 e0 bd
       0.093408756 -0.51164603 0.09548348 -0.109661505
000220 6c c4 cc 3b 9f d4 e1 bd a8 47 98 3e da 64 f3 3b
       0.0062490012 -0.110268824 0.2974217 0.007427794
000230 9e 31 e2 3e a8 64 61 3d 3f ed 2b bb 62 ff bd 3e
       0.4417848 0.055027634 -0.002623394 0.37108904
000240 fb b5 c6 3e 05 68 fc bd 83 ee 9d 3e 9a b0 0c be
       0.38810715 -0.12324528 0.30846033 -0.13739243
000250 d1 14 1a 3e 23 53 80 be 0c 23 d2 3c ce 17 14 bd
       0.15047003 -0.25063428 0.025651477 -0.036155514
000260 97 8e 65 be 23 eb dd bd 4a 26 90 3e c6 b8 bb 3e
       -0.22417675 -0.108358644 0.28154212 0.36664408
000270 4b 28 d0 3e 6a 42 3a 3e 41 64 2d bd 72 00 05 be
       0.4065574 0.18189397 -0.042331938 -0.12988451
000280 dd fc 6c bc 94 82 1b bc 15 4c 27 3d c4 37 ec 3e
       -0.014464584 -0.0094915815 0.04084404 0.46136296
000290 3a 3d 2f be 74 92 06 3f 56 0d 59 3e 3a 6c f5 3e
       -0.171132 0.5256722 0.21196494 0.47934133
0002a0 dc ec bc 3e 24 ab e6 3e d9 e8 c8 3d c4 8b a4 3e
       0.3689946 0.45052445 0.09810037 0.32137883
0002b0 1a 26 53 3e 3e d3 d5 3c 2a c6 49 bd ea c8 3d 3e
       0.20620003 0.026101705 -0.04926125 0.18533674
0002c0 5e 63 b9 3e 83 8b 9d 3e 10 d5 90 3e 12 f9 cd 3e
       0.36208624 0.30770501 0.28287554 0.40229088
0002d0 39 1f 95 be fe 76 7f 3e 60 c8 be be b0 74 f2 3e
       -0.29125383 0.24947736 -0.3726225 0.4735465
0002e0 fb 9c b4 3e a2 ef b3 3e 6e 22 8a be 05 87 ef 3e
       0.35276017 0.35143763 -0.26979393 0.467827
0002f0 bc 36 f2 3e ed 7b c5 bc 0c 93 42 be ee 7b d5 3e
       0.47307384 -0.024106944 -0.19001406 0.41696113
000300 86 a1 d7 3d 55 28 e0 3e 38 07 b1 be 4f 77 dd 3e
       0.10528855 0.4378077 -0.3457582 0.43255088
000310 c6 dc d5 bc b3 82 3d bd 50 68 dd 3e 5d 41 a3 bd
       -0.02610625 -0.046267223 0.43243647 -0.079714514
000320 ab 66 ab be bc 9d 54 bd 4b 59 b9 3d 66 db d1 3c
       -0.33476767 -0.05190824 0.090502344 0.025617313
000330 91 73 2e bd 8e 0e 49 bd 98 91 9d 3e 19 31 6b 3e
       -0.04259068 -0.049086146 0.30775142 0.22967948
000340 98 1a 0f bc 4c 83 74 be f0 5b 80 3e 02 b0 4d 3e
       -0.008734368 -0.23878211 0.25070143 0.20086673
000350 37 6a f3 bd e5 76 85 be 0f cc 40 3f 37 e4 f3 be
       -0.11885493 -0.26067272 0.7531137 -0.47635052
000360 ca 3c 5e 3d 0d a3 c1 be d2 97 d9 3e 8e cd a6 bd
       0.05425719 -0.3781971 0.42498642 -0.08144675
000370 52 17 a9 be 39 b9 51 3d a2 d0 24 3d a3 74 9a 3e
       -0.33025604 0.051202033 0.04023803 0.30167112
000380 18 30 0f 3d 29 b5 74 bd a0 7f de 3d 35 ab 0a 3e
       0.034957975 -0.05974308 0.10864186 0.13541873
000390 ce 0f 03 3e d1 5e f8 3e b0 44 90 3e 5a 19 bc 3d
       0.12798998 0.4850984 0.28177404 0.09184523
0003a0 86 0f 80 3b 8b 4f 15 3d da 34 c0 bd 33 03 32 bd
       0.0039081005 0.03645281 -0.09385081 -0.043460082
0003b0 7f fc 97 bc ff fb c1 bd de 06 a1 bd 53 80 cd 3d
       -0.018553017 -0.094718926 -0.07862638 0.100342415
0003c0 b3 b1 a6 3d ed b1 1a 3d 86 56 29 3d 4c c6 1c bd
       0.08139362 0.03776734 0.04134228 -0.038275048
0003d0 60 9d b5 3c 6e 8f be bc 8f 01 7f 3d cc 4f 04 3d
       0.022169769 -0.023261752 0.062257346 0.032302663
0003e0 9b c3 e2 bd 5a d6 7e bd a6 eb 14 bc 6e a1 51 3c
       -0.11072465 -0.06221614 -0.009089386 0.0127948355
0003f0 b7 8b 40 bd e1 1d d8 bd 6c ec c5 bd df 13 47 3d
       -0.047008242 -0.10552574 -0.096642345 0.048602935

l2.bias f4 [77]
000000 95 21 1b 3d d4 d0 7e 3e ba 80 48 3e 7c e1 1f 3b
       0.037873823 0.24884349 0.19580355 0.0024395874
000010 76 5d 72 3e f2 5d f0 3d 77 b4 b5 3e aa f7 b2 3e
       0.23668465 0.11736669 0.35489246 0.34954578
000020 2d 76 8d 3e 4b d4 86 3e 68 05 3e bd e8 44 ba 3e
       0.27629223 0.26333842 -0.046391875 0.36380696
000030 0e f5 cb 3e b1 0b b3 3e d3 d4 a2 3e 1f fa 59 3e
       0.398354 0.34969857 0.31802997 0.2128682
000040 4a 23 bc 39 fd d6 1a 3e 78 dc 59 3e 23 36 42 3d
       0.00035884447 0.15121074 0.21275508 0.04741491
000050 9e 73 8e 3e 3c 0d 33 3e 84 36 84 3e 8a 6c fc 3d
       0.27822584 0.17485517 0.25822842 0.1232539
000060 b3 74 af 3d 9a f8 04 3e 3f 7a 41 3e 8a 1f a8 3d
       0.085671805 0.12985459 0.1889429 0.082091406
000070 78 54 68 3e 98 53 0b 3e 9f 46 67 3e de c9 b3 3e
       0.22688472 0.13606107 0.22585534 0.3511495
000080 bb 73 90 bd 8e c8 73 3e c9 2b a4 3c e1 af 90 bd
       -0.07053324 0.23806974 0.02004041 -0.07064796
000090 66 20 6f bd ef 4b ba 3d 1f 94 03 be 93 db 68 bd
       -0.058380507 0.090965144 -0.12849472 -0.056850027
0000a0 b1 4f ab bd 53 17 20 3e 35 4f ab 3d 7a 91 ea 3c
       -0.08364809 0.15633897 0.08364717 0.028633822
0000b0 27 0e 33 bd 06 77 d7 3e 8c 33 62 3e 78 bf 6f 3d
       -0.04371467 0.42082995 0.22089976 0.05853221
0000c0 aa 5b fb 3d 7d dd 41 bd fc 33 cb 3e 54 99 b0 3d
       0.12273343 -0.04733037 0.39688098 0.08622995
0000d0 02 27 69 3e 1c ec f0 3d bf e4 a2 3e 54 78 6f 3e
       0.22768787 0.11763784 0.31815144 0.23385745
0000e0 27 76 8d 3d 27 dd 6f 3e e9 82 58 bc e8 17 38 bc
       0.069073014 0.23424207 -0.013214805 -0.011236168
0000f0 4c cd b7 bd c6 14 87 3d b2 dd 20 bd 3b d1 a8 3d
       -0.08974704 0.06595759 -0.039273925 0.082430325
000100 21 d6 db 3d 28 3d 90 3e c9 08 58 3d 4b 10 18 3e
       0.10734201 0.2817166 0.052742753 0.14849965
000110 e4 07 9c 3e 5c 67 33 3e 71 78 bd 39 47 ec 8d 3e
       0.3047477 0.17519897 0.00036138625 0.27719328
000120 73 cb 9e 3e 54 9d ac 3e 87 68 c3 bd c5 db 57 3d
       0.31014594 0.33713782 -0.095414214 0.052699823
000130 0a ef a6 bd
       -0.08151062

l3.weight f4 [63, 77]
000000 00 3d 9b be 8b b9 10 3e 09 b1 a7 3d 31 13 18 bd
       -0.30319977 0.14133279 0.08188064 -0.037127677
000010 ce a3 e6 be 5b 54 27 3c 3e 5b c3 be 3d ac e7 3d
       -0.45046848 0.010212983 -0.3815555 0.11312149
000020 3e e9 97 be fb c6 99 bd d6 f1 0d bc 10 05 bf 3d
       -0.29670137 -0.07508656 -0.008663615 0.093271375
000030 11 5e 21 bf c3 56 f4 3d f0 f0 4b be 75 d8 0d 3e
       -0.6303416 0.11930611 -0.19916129 0.13852103
000040 34 d1 9b 3c 6c 88 2c be fa 0b 15 3e a8 1d 60 be
       0.019020654 -0.16848916 0.1455535 -0.21886313
000050 a2 b1 d4 3d f7 31 e1 be b8 79 2a bd 32 cb 96 3d
       0.10385443 -0.43983433 -0.041619986 0.07362975
000060 89 e7 33 3e 46 73 77 3e 5c c5 de bd 07 4b 08 bf
       0.17568792 0.24165067 -0.10877487 -0.5323948
000070 9c 53 87 be e6 09 15 be ce 82 08 3e f5 18 c1 bd
       -0.26430976 -0.14554557 0.13331148 -0.09428588
000080 7f 14 ba bd f7 f9 a3 be 04 02 3e bd ba 4a 8c 3d
       -0.090859406 -0.32026646 -0.04638864 0.068501905
000090 b3 d9 a1 3c c3 10 4a bb b8 e8 6d bd 1c 86 ad 3d
       0.019757127 -0.0030832745 -0.058083266 0.08472845
0000a0 dc 76 aa bd 57 8f e7 be 2a 3b 1f be 53 4e 66 be
       -0.08323452 -0.45226547 -0.15549913 -0.22490816
0000b0 46 66 08 bd 5d db 40 be 59 3d 06 3d 34 7f d4 be
       -0.03330066 -0.1883368 0.03277335 -0.41503298
0000c0 b2 f8 1a 3e d8 f5 32 bd 9a 11 f4 3d ea 8c d6 bd
       0.15133932 -0.043691486 0.1191742 -0.10476096
0000d0 93 d8 50 3e 93 d0 4c 3c dc 9c 38 be 16 03 77 bd
       0.20395117 0.0125009 -0.18028587 -0.060305677
0000e0 20 4c 07 bf 76 37 89 be 83 f2 27 3d 08 36 0a 3d
       -0.5285053 -0.26800126 0.04100276 0.033742934
0000f0 73 95 d1 3d 41 63 5f 3e 18 be 1f be 40 04 9a be
       0.10233583 0.21815206 -0.15599859 -0.30081367
000100 23 7b ce 3d a3 18 c0 ba b1 1f fa 3d 44 24 70 be
       0.1008208 -0.001465578 0.12213076 -0.23451334
000110 b9 61 4d 3e 65 9d bf bd 0b 0e b7 3d dc 06 d7 3d
       0.2005681 -0.093561925 0.08938225 0.10499355
000120 22 9b e8 bc 88 9b a2 3d 90 e2 1d 3c a3 e5 00 bf
       -0.028394286 0.079398215 0.009636536 -0.503504
000130 9f b7 a1 bd b5 e3 f6 3d bc 15 b4 3d 31 65 67 bc
       -0.07896351 0.120551504 0.08793208 -0.014123247
000140 9a 97 3c bd 77 05 dd bc d8 e4 32 be 78 4a 78 be
       -0.046043016 -0.026980145 -0.1747011 -0.24247158
000150 01 35 22 3d 9b e0 ee 3d d1 a6 8c be ea f9 1e bd
       0.03960133 0.11663934 -0.2747102 -0.038812555
000160 81 ad 65 3d 74 e6 fd bd 58 cc 5a 3e fd 48 dc bd
       0.05607367 -0.12397471 0.21367013 -0.10756109
000170 34 11 ca 3c 19 bd 52 3e f6 24 ed be a3 de 85 be
       0.024666406 0.20579948 -0.4631726 -0.2614642
000180 c6 99 91 be 19 ca 28 be aa 37 60 bf 36 9c 14 3e
       -0.28437632 -0.16483344 -0.87584937 0.14512715
000190 b0 b1 21 be a0 2a 04 bf 40 7f 81 bd c3 88 b8 bc
       -0.15790439 -0.5162754 -0.06323099 -0.02252615
0001a0 30 07 2b bf 74 65 22 bd f5 23 31 3e 23 f6 26 3e
       -0.6680784 -0.039647534 0.17298873 0.16304831
0001b0 74 46 75 be 74 33 87 ba 4f f1 d7 bd 31 2d 3a 3d
       -0.23952657 -0.0010315017 -0.10544073 0.045453254
0001c0 2b 86 7c 3d 38 19 3f 3d 89 14 24 bc 5b 69 85 bd
       0.06165139 0.04665491 -0.010014662 -0.065142356
0001d0 91 64 23 3e 43 95 1e 3c cd ba 22 be d7 81 b8 3d
       0.15956332 0.009679141 -0.15891571 0.0900914
0001e0 b1 e7 4c bd 14 3a 0f 3d fc 22 ec bd f5 31 e2 be
       -0.050025646 0.034967497 -0.1153011 -0.4417874
0001f0 29 bd 9e 3d 44 3a 0c 3e d9 de 82 3d 77 f6 57 3e
       0.07750923 0.13694102 0.06390161 0.21090113
000200 3e 97 82 3d dd 70 c4 3c 06 4a b3 bd af d3 a4 3d
       0.063765034 0.023979599 -0.08754353 0.08048188
000210 ca b2 05 be f9 5f cc bd 86 90 df bd a9 17 f7 bc
       -0.13056484 -0.09979243 -0.109162375 -0.03016265
000220 c6 d4 a7 bd 99 92 48 be c9 f0 b7 be 3d d3 db 3d
       -0.0819488 -0.19587173 -0.35925892 0.1073365
000230 66 30 cd bd 84 96 bf be 6b 2d 2e be 10 1b 7a be
       -0.10018997 -0.37419522 -0.17009513 -0.24424386
000240 4c 0d 58 3e 78 36 bc be a8 d2 35 be e0 0e 3b 3e
       0.21098822 -0.36760306 -0.1775614 0.18267393
000250 1b 68 b7 bc dd 88 f9 bc fb cd 3c 3d a7 07 e4 bd
       -0.022388509 -0.03046077 0.046094876 -0.11134272
000260 df 52 91 be 34 ec 0f 3d dd 66 11 bd e3 64 cd be
       -0.28383538 0.03513737 -0.03549849 -0.40116033
000270 2e 17 c9 3d cc 08 f4 bc c3 11 04 bb 81 fc 47 bd
       0.09818874 -0.02978935 -0.0020152188 -0.04882479
000280 24 6f 6e 3e 6d 43 76 3e 02 59 9e be 86 7b 8d bd
       0.23284584 0.24049158 -0.30927283 -0.06908326
000290 fe e0 76 be b3 8b d8 be 9a dd c2 bd 8d 4e e1 3d
       -0.24109265 -0.42294082 -0.095149234 0.110013105
0002a0 cc 2f 02 be f3 fd 8a bd 1c 04 3e be 9c 53 db bc
       -0.12713546 -0.06786718 -0.18556255 -0.026773266
0002b0 55 1c 44 3d 4f 1d c5 bd 57 a5 ab bc 3e 31 33 be
       0.047878582 -0.09624731 -0.020952864 -0.17499253
0002c0 01 a7 71 bd 50 79 86 bd 3e bd 3b 3d 2d d8 e7 3d
       -0.058997158 -0.06566107 0.045834772 0.11320529
0002d0 1c da 32 3d 81 bf 5d 3d 05 79 21 3e 8a fa e5 bd
       0.043665037 0.05413771 0.15768822 -0.11229427
0002e0 b8 aa 58 3e 3f ed c3 bb 5e 9c b8 3d ab 79 e2 3b
       0.21158874 -0.0059792097 0.090142 0.0069114766
0002f0 e3 18 d0 3d 61 7a ad bd fb fc 85 be 52 9d 0c bc
       0.10160997 -0.084706075 -0.2616957 -0.00858243
000300 0c 7f c7 3c ef b9 70 be 81 7c c1 3d af a4 99 3d
       0.024352573 -0.23508428 0.09447575 0.07502114
000310 29 3d 53 be 39 9d b4 bd 2c 19 9b 3d 82 33 95 3e
       -0.206288 -0.0881905 0.075731605 0.2914086
000320 be 26 b5 bc 61 ff 2e bd ce a8 3d be c3 c3 3a 3d
       -0.0221132 -0.042724017 -0.18521425 0.04559685
000330 c6 e3 d6 3b 3b 71 dc 3a c4 ab c1 be f6 96 97 3d
       0.0065579144 0.0016818413 -0.3782636 0.074018404
000340 41 5c 08 be c6 3c 5f be d4 44 fa bd ea 0f f2 bd
       -0.13316442 -0.21800527 -0.12220159 -0.118194416
000350 76 d5 b8 3d 20 eb 95 be 8c 57 2d be 52 d1 fe be
       0.090250894 -0.2928095 -0.16927928 -0.49769074
000360 ca 46 f4 3c e1 38 c9 be 56 d2 22 be e6 54 65 3e
       0.029818911 -0.39301208 -0.1590055 0.22395667
000370 3e 46 79 bd f7 62 75 be d2 7e fc 3d 4a 9c 20 be
       -0.060858004 -0.23963533 0.123288766 -0.1568462
000380 8d 13 84 be f8 86 b1 bd 49 1a 65 be b7 f7 85 bd
       -0.25796166 -0.08668321 -0.22373308 -0.065413885
000390 64 73 8b bd 31 c1 f5 3d 10 db 1e bd 1a 36 1f 3e
       -0.068091184 0.11999739 -0.038783133 0.15547982
0003a0 b0 d7 64 be cf 4e d5 bd 35 fd ee 3c 14 56 76 3e
       -0.22347903 -0.10415422 0.029173473 0.24056274
0003b0 38 5c 9c bd 1d 5e 5e be 2e b6 86 3e d8 41 43 3e
       -0.07634777 -0.21715589 0.26310867 0.19068086
0003c0 cc 31 0e be 82 b8 1d bd 0a dc 7e bd 88 e8 c1 3d
       -0.13886184 -0.03850604 -0.062221564 0.0946818
0003d0 0a 94 25 3e 25 0a 1d be b7 62 54 3e a1 57 aa be
       0.16169754 -0.15335901 0.20740782 -0.3326998
0003e0 f1 df de be f8 23 d7 bc fe c7 37 bd 79 c7 7e be
       -0.4353023 -0.026262268 -0.04486846 -0.2488078
0003f0 20 5d 82 3d 73 71 05 3e 68 e4 40 be ee 1c b0 3c
       0.063654184 0.13031559 -0.1883713 0.02149817

l3.bias f4 [63]
000000 df 7e 36 be 77 a5 ef bd 82 b7 16 3e 8b d1 26 bd
       -0.17821835 -0.11701482 0.1471844 -0.04072718
000010 51 99 2f be ed 62 3c be 00 fd 11 bc 55 fc 8d bd
       -0.1714833 -0.18397112 -0.008910418 -0.06932894
000020 40 2e 2b be af b5 fa 3d 7e 95 3f be cb 2a d2 bd
       -0.16716862 0.12241685 -0.1870937 -0.10262068
000030 86 55 2d be 7b ea 0f 3e 5a 6e c1 bd 19 b2 9f bd
       -0.16927156 0.14054291 -0.09444876 -0.07797641
000040 28 00 17 bd f0 e7 14 bd 76 fd 87 3c 57 04 1c 3d
       -0.036865383 -0.036354005 0.016600352 0.038090076
000050 ca 30 5c bd b9 80 c2 3c 36 c5 8c 3c 03 83 c9 3d
       -0.053757466 0.02374302 0.017183881 0.098394416
000060 61 77 2a be c1 d5 c7 3d 7c ef 23 be 07 59 04 3e
       -0.16647102 0.09757567 -0.16009325 0.12924586
000070 5f a4 08 be 8a 81 20 bc a0 07 e1 3d 88 d9 35 be
       -0.13343953 -0.0097965095 0.109877825 -0.17758763
000080 3a d3 0f bd 5d 2a d5 3d fa 64 70 bd f4 8c c4 3c
       -0.03511355 0.10408471 -0.05869005 0.023992993
000090 69 17 44 bd 1c 48 66 3d 7f af 1a be 4f 5e f1 3d
       -0.04787389 0.056221113 -0.15106009 0.11785566
0000a0 0a 0b 10 be 7b 01 5a bc 27 c2 83 be 13 80 dc bd
       -0.14066711 -0.013306017 -0.25734064 -0.10766616
0000b0 63 0d 2a bd b2 1e 91 bd 8f 90 96 3d 2e 6f 05 3d
       -0.041516673 -0.07085933 0.07351791 0.032576732
0000c0 96 47 39 be f3 05 73 be 17 fc 63 be 37 b8 94 be
       -0.18093714 -0.23732738 -0.22264133 -0.29046795
0000d0 64 10 9d bd 1a 18 20 be 80 88 b2 bd 72 44 dc 38
       -0.07669142 -0.15634194 -0.087174416 0.000105031664
0000e0 1e 39 e9 3b d4 9e 6b bd a4 07 2a bd 78 96 c4 bd
       0.0071174046 -0.057524517 -0.041511193 -0.09599012
0000f0 6a 13 62 bd 38 ab 81 be 1f f5 26 3e
       -0.055194296 -0.25325942 0.16304444
