data3.pth (torch, 124039 bytes, 6 tensors)

l1.weight f4 [73, 264]
0.05791202 -0.02890874 0.34566054 -0.086513646 0.21008852 0.22894002 0.10945962 -0.062374454
-0.17291842 -0.21698408 -0.074348554 -0.018185802 0.058609396 0.2446494 0.053149723 -0.20130329
0.097153045 0.014390345 -0.017601477 -0.07748712 -0.17010574 0.04761261 0.071957745 -0.0674723
-0.053491846 -0.083211794 -0.030716896 0.12854806 0.03587694 -0.008793736 -0.022672767 0.19514735
-0.062040213 -0.022403533 -0.13963082 -0.10577283 -0.069047585 -0.19324975 -0.048943255 0.072154954
0.007010444 0.0044707702 -0.05171014 0.05019302 -0.10196656 0.042695772 -0.080115505 0.010013894
-0.01784487 -0.12574378 0.24175927 -0.010807026 -0.010401707 -0.04515152 -0.0410824 0.072940014
0.046587896 0.004810158 -0.08261429 0.0062078554 0.028157832 -0.27683887 -0.13664249 -0.036457486
0.3291779 0.038935296 0.046448976 0.042064775 0.05492608 0.16061495 0.08450007 -0.24502246
-0.0658234 0.0013028308 0.11094664 -0.14719686 0.07023244 0.44183892 -0.21974024 -0.18439786
-0.08449564 0.05212883 -0.017496938 -0.05309554 -0.013102377 0.20584515 -0.014456258 -0.03657854
0.09169606 0.46528462 0.039337616 -0.013696103 -0.05230767 0.09229176 -0.06569695 0.36279026
-0.15674113 -0.0054502655 -0.0379558 0.033014953 0.043095335 -0.07111422 0.07245854 -0.16332148
0.070557736 0.0058579883 0.0068091108 -0.08644647 -0.14118373 -0.07142819 0.2309649 -0.1587714
-0.1466471 -0.08702228 -0.08220728 0.485691 -0.21014531 0.22100502 0.004469352 0.026958508
0.1380592 -0.015324396 0.029923752 0.060636967 0.047688607 -0.14463577 -0.064513065 -0.03899393
-0.110096425 0.13519324 0.116472244 -0.08850206 0.110492654 -0.0136406375 -0.013136454 -0.018170409
0.075043425 0.049820293 0.08973468 0.14460653 0.07740139 0.11416957 -0.03293191 -0.11653978
0.11790919 0.24608201 0.04278837 0.21250387 0.025574412 -0.14232583 -0.015725853 0.029688647
0.12802532 0.03145737 0.21795475 -0.0048612547 -0.23501322 -0.07608739 0.13280754 -0.017258616
0.15000767 -0.06281263 0.14977199 -0.073197715 0.04320822 -0.0018938346 -0.035211235 -0.0012437181
0.07124508 0.113567 -0.011290508 0.19931868 0.08902548 0.011371399 -0.23009427 0.0035703208
-0.09795727 -0.12408234 0.19108284 -0.27142358 -0.06884477 0.2064079 -0.15483113 -0.046423487
0.0011278696 -0.026290318 0.2665654 0.17107524 0.057544798 -0.03872767 -0.0091888225 0.066494405
-0.16152905 0.098027624 -0.14174639 -0.03603429 0.23128712 0.036628287 -0.025513718 0.40801597
-0.044404026 -0.06570551 0.07247134 0.0070465095 -0.035730142 -0.018328281 0.039228145 0.028838458
0.06925706 0.019580927 -0.0052986345 -0.14478527 0.012857561 -0.14149454 0.09140163 0.03048583
0.1300031 0.08921596 0.2220312 0.22167362 0.06784265 -0.054787483 0.010479475 0.0327641
0.090997994 0.027064761 0.28847975 0.22799338 0.17433996 0.1798107 0.012010932 0.017302815
-0.08939425 0.10472119 -0.0043831924 0.012817053 -0.026561165 0.09949551 0.23288476 -0.038447466
-0.046789084 -0.010505889 0.118773155 0.14451668 0.051538575 0.013902665 0.007885875 -0.08270436
0.0055668326 0.005264962 -0.1636648 0.1880695 0.056871213 -0.15061484 0.0999123 0.052975006
00000000: 2735 6d3d 06d2 ecbc 6bfa b03e 112e b1bd
00000010: 7221 573e 416f 6a3e 5e2c e03d 5b7c 7fbd
00000020: 8711 31be 1331 5ebe 0e44 98bd 64fa 94bc
00000030: 6810 703d 5f85 7a3e 86b3 593d 7322 4ebe
00000040: 2df8 c63d 7bc5 6b3c f930 90bc 91b1 9ebd
00000050: 3330 2ebe 7105 433d 955e 933d eb2e 8abd
00000060: 441a 5bbd f26a aabd 00a2 fbbc 1aa2 033e
00000070: b3f3 123d 9a13 10bc 3dbc b9bc b5d4 473e
00000080: e11d 7ebd 9d87 b7bc 62fb 0ebe 6d9f d8bd
00000090: d268 8dbd 43e3 45be b978 48bd fac5 933d
000000a0: deb7 e53b 8a7f 923b 03ce 53bd 3297 4d3d
000000b0: d8d3 d0bd c3e1 2e3d 9913 a4bd 5111 243c
000000c0: 682f 92bc fac2 00be be8f 773e f40f 31bc
000000d0: ec6b 2abc cdf0 38bd 0546 28bd 9361 953d
000000e0: f3d2 3e3d 889e 9d3b ae31 a9bd 446b cb3b
000000f0: 41ab e63c d3bd 8dbe 02ec 0bbe 7254 15bd
00000100: 018a a83e 9e7a 1f3d 4841 3e3d 1d4c 2c3d
00000110: 2bfa 603d 3f78 243e 5f0e ad3d 2be7 7abe
00000120: 6bce 86bd bfc3 aa3a fe37 e33d c6ba 16be
00000130: 07d6 8f3d b638 e23e 9603 61be cbd2 3cbe
00000140: 0d0c adbd 0a85 553d bd55 8fbc b57a 59bd
00000150: 5aab 56bc 12c9 523e f1d9 6cbc 61d3 15bd
00000160: 25cb bb3d c939 ee3e 7b20 213d 9f65 60bc
00000170: 9140 56bd 7603 bd3d 1f8c 86bd a5bf b93e
00000180: bf80 20be 2498 b2bb 8a77 1bbd b03a 073d
00000190: bc84 303d 55a4 91bd 2565 943d bf3d 27be
000001a0: 9380 903d 5ef4 bf3b f61e df3b d90a b1bd
000001b0: 7892 10be f148 92bd 1082 6c3e f894 22be
000001c0: a82a 16be bd38 b2bd 4a5c a8bd 7eac f83e
000001d0: 5530 57be 244f 623e a473 923b 17d8 dc3c
000001e0: 645f 0d3e 2d13 7bbc a822 f53c 785e 783d
000001f0: 2155 433d 661b 14be 6d1f 84bd 19b8 1fbd
00000200: 3c7a e1bd 1970 0a3e 0089 ee3d 9140 b5bd
00000210: f949 e23d fb7c 5fbc 483a 57bc 1cda 94bc
00000220: 5eb0 993d 5d10 4c3d d1c6 b73d bc13 143e
00000230: 9f84 9e3d bcd1 e93d 9ce3 06bd 68ac eebd
00000240: 607a f13d ecfc 7b3e dc42 2f3d 9d9a 593e
00000250: 6e81 d13c ddbd 11be 81d3 80bc 9b35 f33c
00000260: 1219 033e 71d9 003d 882f 5f3e 294b 9fbb
00000270: 4ea7 70be b5d3 9bbd b3fe 073e f161 8dbc
00000280: 9c9b 193e e8a3 80bd d45d 193e afe8 95bd
00000290: 1afb 303d 8b3a f8ba a839 10bd 4104 a3ba
000002a0: f1e8 913d d195 e83d d3fb 38bc 321a 4c3e
000002b0: fe52 b63d 1b4f 3a3c d59d 6bbe 0bfc 693b
000002c0: d29d c8bd e21e febd 38ab 433e 08f8 8abe
000002d0: 7dfe 8cbd 985c 533e 0d8c 1ebe 8e26 3ebd
000002e0: 06d5 933a cb5e d7bc 437b 883e 592e 2f3e
000002f0: 18b4 6b3d e8a0 1ebd b78c 16bc 382e 883d
00000300: df67 25be b5c2 c83d f725 11be b198 13bd
00000310: 88d6 6c3e 8b07 163d 2502 d1bc 78e7 d03e
00000320: ffe0 35bd 9c90 86bd db6b 943d 68e6 e63b
00000330: c559 12bd 3125 96bc b1ad 203d a13e ec3c
00000340: a5d6 8d3d 2e68 a03c 2ba0 adbb 9742 14be
00000350: 85a8 523c f2e3 10be c730 bb3d 6bbd f93c
00000360: 881f 053e dbb6 b63d 265c 633e 69fe 623e
00000370: 16f1 8a3d d768 60bd 1bb2 2b3c a633 063d
00000380: 285d ba3d ebb6 dd3c 9eb3 933e 1977 693e
00000390: 2d86 323e 4c20 383e 80c9 443c a2be 8d3c
000003a0: 5514 b7bd 1078 d63d e2a0 8fbb 9efe 513c
000003b0: cd96 d9bc 4dc4 cb3d 5879 6e3e 177b 1dbd
000003c0: e9a5 3fbd e420 2cbc 573f f33d 2efc 133e
000003d0: 1d1a 533d 01c8 633c c233 013c e760 a9bd
000003e0: fa69 b63b b485 ac3b bf97 27be 4a95 403e
000003f0: caf1 683d c73a 1abe d29e cc3d 52fc 583d

l1.bias f4 [73]
0.3911326 0.40375242 0.34918088 0.28088212 0.34696332 0.38155356 0.4187742 0.427013
0.5535477 0.30241033 0.25835526 0.5246722 0.46385667 0.32804552 0.20049255 0.3733007
0.61822265 0.5471024 0.4695679 0.1601106 0.35976997 0.14790657 0.35624158 0.16121261
0.43819544 0.1851792 0.44410813 0.3718511 0.3721355 0.34011656 0.48945838 0.45809484
0.4053841 0.4387946 0.3211184 0.4371387 0.31648612 0.3600848 0.39919055 0.37033382
0.22617827 0.30607048 0.26065958 0.50370824 0.3575242 0.29158178 0.6225931 0.30134273
0.25171608 0.37776408 0.47965828 0.4244856 0.3289108 0.19493096 0.3772911 0.15310545
0.40359378 0.093060754 0.45618412 0.25493583 0.24148715 0.24049608 0.40564543 0.4217384
0.455662 0.64071 0.42296162 0.38798147 0.3334982 0.37049747 0.3364873 0.4477588
0.29798684
00000000: 8842 c83e a3b8 ce3e d6c7 b23e c8cf 8f3e
00000010: 2da5 b13e fd5a c33e 9269 d63e 73a1 da3e
00000020: 4db5 0d3f 87d5 9a3e 2447 843e eb50 063f
00000030: 9f7e ed3e 95f5 a73e eb4d 4d3e 4521 bf3e
00000040: d743 1e3f e70e 0c3f 346b f03e 08f4 233e
00000050: c533 b83e d274 173e 4c65 b63e eb14 253e
00000060: 275b e03e 9e9f 3d3e 2462 e33e 4463 be3e
00000070: 8b88 be3e c223 ae3e 4a9a fa3e 688b ea3e
00000080: 818e cf3e b0a9 e03e a269 a43e a5d0 df3e
00000090: 780a a23e 095d b83e b462 cc3e 659c bd3e
000000a0: 479b 673e 45b5 9c3e 2c75 853e 06f3 003f
000000b0: 690d b73e 354a 953e 4362 1f3f 9849 9a3e
000000c0: eee0 803e 4b6a c13e c595 f53e 2d56 d93e
000000d0: ff66 a83e fb9b 473e 4d2c c13e adc7 1c3e
000000e0: d8a3 ce3e a396 be3d f790 e93e f386 823e
000000f0: 6848 773e 9b44 763e c2b0 cf3e 18ee d73e
00000100: 884c e93e 9205 243f 6d8e d83e 82a5 c63e
00000110: 47c0 aa3e d8b1 bd3e 1048 ac3e a440 e53e
00000120: bb91 983e

l2.weight f4 [73, 73]
0.5884278 -0.06300971 0.28173235 0.042416055 0.12828247 -0.22771634 -0.12784284 -0.04336426
-0.15252933 0.117562786 0.0971233 0.30303583 -0.016992092 0.3924852 -0.15344831 -0.21913472
0.22675669 0.28139177 0.013915117 -0.21012737 -0.06315657 0.3378456 0.33515126 -0.18322207
0.30103442 0.016214104 0.051072896 0.009793081 -0.05597027 -0.17253217 0.13017173 -0.04013517
0.2887668 -0.003146701 0.22067226 -0.15988074 -0.44397172 0.20252158 0.19272274 -0.05113824
-0.09398139 -0.1771351 -0.17624326 0.008714218 0.2452551 0.2272094 0.2974865 -0.22482854
0.07767972 0.067756504 0.41098824 -0.17838587 0.37430894 0.15397923 0.0339013 0.15569557
0.3567655 0.24930164 0.0550308 -0.036067877 -0.030731862 0.10810514 0.08544495 -0.2234019
0.4801455 0.18756703 -0.019413177 0.13744989 -0.02767651 -0.23511091 0.14630651 0.51104397
-0.30918935 -0.20956673 0.2758253 0.1664838 -0.02943866 0.08883799 0.24523452 -0.21331924
0.25140524 0.10126682 -0.03891061 0.16180104 0.39691448 -0.115960926 0.0013556081 0.056085255
-0.07651203 0.20888317 0.2025945 0.037297945 -0.22257623 0.26267478 -0.07585982 0.03940539
-0.036255524 -0.14198466 0.23124172 0.41143617 0.17528173 0.29238197 -0.08436039 0.08416031
0.02363798 -0.1331005 0.103624396 0.06645945 0.19542454 0.24425952 -0.14613141 0.29104945
-0.1488298 -0.0042076926 0.1343248 0.17948604 0.20343907 0.23953061 -0.17814456 0.18112244
0.24883412 -0.08366731 0.28940082 -0.018438194 0.1997266 -0.087151445 -0.24504599 -0.1533593
0.07026795 0.11244618 0.027280902 -0.045640975 -0.28050873 -0.07049919 0.12870255 -0.14665465
0.37997028 -0.12724103 -0.23096797 0.13719381 0.32766655 0.37335104 -0.1186223 0.0017294562
0.1888589 -0.06742303 -0.16159534 0.18585381 -0.120140396 0.12619714 0.23470533 0.3294884
0.27624542 0.08595291 0.07713348 0.5528691 0.0021922735 -0.029615546 0.19407405 0.40625823
0.1287188 0.38721254 -0.25185114 -0.152746 0.22745478 0.10994742 0.0631489 0.030171547
-0.051110074 0.2308008 0.21201348 0.11977856 0.20865043 -0.03291558 -0.015230646 0.09206223
-0.4017189 0.3735673 -0.27689624 0.21153772 0.21342626 0.15500338 0.18304902 0.094887055
0.64010876 0.29961088 0.16947116 0.0117517235 0.0020556545 -0.2025541 -0.14816622 0.3898782
0.04658605 0.3500681 0.52883404 0.42729196 -0.3319292 -0.024894528 0.2899928 -0.19638708
0.073387645 0.04388574 -0.15374607 -0.17370334 -0.28185725 0.37471163 -0.2126263 -0.25141355
0.007845373 0.3093503 -0.39825928 0.25385007 0.23420383 0.28898615 0.15033397 0.11606651
-0.004576545 -0.36058986 0.17333058 -0.1042089 0.23262648 0.10775373 0.2202332 0.04565498
0.06498838 0.04563175 0.22378531 0.030442702 0.028275589 0.33516786 -0.16788368 -0.17923559
0.29562545 0.28315154 0.123761296 -0.0023531364 0.28789985 0.08165907 -0.09992965 0.094976485
0.1250701 0.1644989 0.09914496 -0.27399987 -0.20372032 0.13636078 0.041403353 -0.039976195
-0.00794974 -0.31350297 0.28872702 0.015772311 0.14407526 0.010966434 -0.064697176 0.13870963
00000000: 34a3 163f 3c0b 81bd 393f 903e 75bc 2d3d
00000010: 7b5c 033e 792e 69be 3ce9 02be b99e 31bd
00000020: a630 1cbe c2c4 f03d 95e8 c63d 8327 9b3e
00000030: 0033 8bbc d2f3 c83e 8e21 1dbe da64 60be
00000040: e832 683e 9512 903e 3bfc 633c a12b 57be
00000050: 3b58 81bd 19fa ac3e f298 ab3e 919e 3bbe
00000060: 2f21 9a3e 71d3 843c d031 513d 2973 203c
00000070: 1541 65bd 46ac 30be bd4b 053e c764 24bd
00000080: 3ed9 933e e238 4ebb e9f7 613e c7b7 23be
00000090: 4350 e3be d161 4f3e 1c59 453e 5576 51bd
000000a0: 5179 c0bd e762 35be 1d79 34be 14c6 0e3c
000000b0: 2724 7b3e 95a9 683e 2750 983e 7439 66be
000000c0: 8c16 9f3d ecc3 8a3d 0d6d d23e c9aa 36be
000000d0: 6ca5 bf3e bbac 1d3e 17dc 0a3d a96e 1f3e
000000e0: f8a9 b63e ee48 7f3e fa67 613d e9bb 13bd
000000f0: 63c1 fbbc 3a66 dd3d c3fd ae3d 78c3 64be
00000100: a2d5 f53e 9211 403e 6208 9fbc aabf 0c3e
00000110: d9b9 e2bc eac0 70be 60d1 153e c7d3 023f
00000120: 114e 9ebe a998 56be f938 8d3e bb7a 2a3e
00000130: 5829 f1bc b1f0 b53d c21e 7b3e 5c70 5abe
00000140: 30b8 803e fb64 cf3d bb60 1fbd 2caf 253e
00000150: 6038 cb3e ec7c edbd a9ae b13a a7b9 653d
00000160: 57b2 9cbd 78e5 553e ef74 4f3e bbc5 183d
00000170: 06eb 63be 4f7d 863e 655c 9bbd 8c67 213d
00000180: ac80 14bd 6d64 11be a1ca 6c3e c3a7 d23e
00000190: 0e7d 333e 17b3 953e 24c5 acbd 3e5c ac3d
000001a0: 70a4 c13c 7f4b 08be 0739 d43d e41b 883d
000001b0: 5f1d 483e 2b1f 7a3e 79a3 15be 6f04 953e
000001c0: d766 18be afe0 89bb 718c 093e 30cb 373e
000001d0: 5552 503e 8347 753e 876b 36be 2978 393e
000001e0: 5fce 7e3e c459 abbd 582c 943e b20b 97bc
000001f0: 2185 4c3e 757c b2bd 56ed 7abe 380a 1dbe
00000200: a5e8 8f3d 2f4a e63d 337c df3c 08f2 3abd
00000210: d79e 8fbe e161 90bd 9aca 033e a32c 16be
00000220: 778b c23e 794b 02be de82 6cbe 897c 0c3e
00000230: e9c3 a73e de27 bf3e 40f0 f2bd ecae e23a
00000240: 3a64 413e 1615 8abd 4079 25be 7650 3e3e
00000250: 2b0c f6bd d339 013e 9856 703e b4b2 a83e
00000260: 0a70 8d3e 1408 b03d 28f8 9d3d d488 0d3f
00000270: 3fac 0f3b 4d9c f2bc 59bb 463e 1401 d03e
00000280: dcce 033e b940 c63e a2f2 80be 7369 1cbe
00000290: e8e9 683e 1d2c e13d 3654 813d 522a f73c
000002a0: cc58 51bd 0b57 6c3e 101a 593e 764e f53d
000002b0: 75a8 553e 7dd2 06bd f689 79bc 1f8b bc3d
000002c0: 1aae cdbe 3744 bf3e 58c5 8dbe 589d 583e
000002d0: 6a8c 5a3e 35b9 1e3e 3471 3b3e 2554 c23d
000002e0: 2bde 233f 9966 993e d989 2d3e 4d8a 403c
000002f0: 29b8 063b 586a 4fbe e3b8 17be 1e9e c73e
00000300: 04d1 3e3d 203c b33e ab61 073f 03c6 da3e
00000310: a0f2 a9be 9cef cbbc f079 943e b219 49be
00000320: 434c 963d 89c1 333d 9c6f 1dbe 4adf 31be
00000330: 984f 90be 34da bf3e b5ba 59be 47b9 80be
00000340: e189 003c 2a63 9e3e a4e8 cbbe a3f8 813e
00000350: 21d3 6f3e fef5 933e 26f1 193e 47b4 ed3d
00000360: d8f6 95bb 3c9f b8be 927d 313e 7a6b d5bd
00000370: a335 6e3e fdad dc3d d084 613e b700 3b3d
00000380: a118 853d 5ce8 3a3d fa27 653e f962 f93c
00000390: 35a2 e73c 1f9b ab3e b3e9 2bbe 8989 37be
000003a0: 385c 973e 3df9 903e 9076 fd3d 1437 1abb
000003b0: 9c67 933e df3c a73d eba7 ccbd 0883 c23d
000003c0: 6012 003e 6672 283e 830c cb3d b649 8cbe
000003d0: 0f9c 50be 29a2 0b3e 9096 293d 14be 23bd
000003e0: a03f 02bc 7683 a0be 07d4 933e ef34 813c
000003f0: 7788 133e 8fac 333c f47f 84bd e609 0e3e

l2.bias f4 [73]
0.1439789 0.0026218912 0.1860806 0.11154744 0.122703835 0.16998631 0.1374703 0.17416097
0.26917237 -0.08856347 0.27537632 0.063575484 -0.046138402 0.13656287 0.39023137 -0.0028136175
-0.12517984 0.3080877 0.39482898 -0.07130499 0.006013777 0.2776651 0.3567813 0.007622082
0.41551003 0.24000019 0.07936807 0.049182292 0.25740832 0.21813086 -0.09013812 0.345746
0.14902247 0.14552827 -0.0067960555 0.07522443 0.23126563 -0.077247456 0.0017836115 0.24877697
0.25192106 0.1117349 0.18269038 -0.15967563 -0.023549788 0.22633384 -0.018565796 -0.08683988
0.04931152 -0.19721012 0.26875684 -0.1140249 0.084404156 -0.13869955 0.27336937 0.19477731
0.18041891 -0.077819675 0.15732165 0.18664822 0.25981155 -0.030257234 0.207302 0.10236885
-0.11245277 0.106893934 0.13435675 -0.004424857 0.07433646 0.00065701513 0.10351581 -0.03511608
0.03373394
00000000: 346f 133e 09d4 2b3b ea8b 3e3e fc72 e43d
00000010: 264c fb3d e410 2e3e 04c5 0c3e 4157 323e
00000020: f6d0 893e c460 b5bd 20fe 8c3e dd33 823d
00000030: 9ffb 3cbd 23d7 0b3e 68cc c73e ab64 38bb
00000040: 252f 00be acbd 9d3e 0627 ca3e 5a08 92bd
00000050: 380f c53b 1f2a 8e3e 0aac b63e a8c2 f93b
00000060: bbbd d43e 9cc2 753e ba8b a23d 5f73 493d
00000070: 06cb 833e b25d 5f3e 569a b8bd 9f05 b13e
00000080: 5999 183e 5d05 153e 72b1 debb 440f 9a3d
00000090: e6d0 6c3e ea33 9ebd 12c8 e93a 64bf 7e3e
000000a0: ccfb 803e 44d5 e43d 3013 3b3e 0282 23be
000000b0: 7ceb c0bc 0fc4 673e 4c17 98bc 1bd9 b1bd
000000c0: e0fa 493d 73f1 49be 7f9a 893e e385 e9bd
000000d0: 16dc ac3d 4107 0ebe 12f7 8b3e b473 473e
000000e0: bcbf 383e ec5f 9fbd ed18 213e b620 3f3e
000000f0: 0506 853e 05de f7bc fa46 543e c2a6 d13d
00000100: a34d e6bd 35eb da3d d194 093e 64fe 90bb
00000110: b73d 983d 8a3b 2c3a 1900 d43d e1d5 0fbd
00000120: 9a2c 0a3d

l3.weight f4 [62, 73]
0.17505242 -0.38199997 0.22719052 -0.028985215 0.030560853 0.12278026 -0.72788084 0.09060038
-0.25330493 -0.073538005 -0.20547445 -0.4626155 -0.11381517 0.004570311 -0.5510615 0.06250875
0.02350729 -0.027771773 0.08483396 -0.11950804 -0.10387479 0.07560986 -0.34379223 -0.09142993
-0.3162179 0.064121775 -0.103191875 -0.009376635 -0.1215112 0.15473485 -0.0017017161 0.11294333
-0.42231226 -0.28760052 -0.14805487 -0.39162225 -0.526617 -0.2196832 -0.08500998 -0.16463578
0.09587894 -0.04565373 -0.06622614 -0.03587237 -0.20288083 -0.07121879 -0.30812004 0.019073136
-0.050468378 0.12018383 0.03310134 -0.08746846 0.17423554 -0.011224664 0.13311356 0.10748789
-0.017033823 -0.03844636 0.062507026 -0.25248474 -0.30176872 0.013592054 -0.018512437 0.10880385
-0.007750608 0.13440698 0.08899026 0.06297373 0.05388724 -0.08988243 0.012421031 -0.080661096
0.10566126 -0.13373916 0.036690947 0.044211805 0.11384977 -0.064586505 0.038875114 -0.6050785
-0.08924942 0.037758294 0.15021992 -0.20719571 -0.18052363 0.06981622 0.14264596 -0.0022497545
-0.05887099 -0.0073218374 0.08711622 0.0048159454 -0.49941635 0.061681274 0.23438972 -0.4837648
-0.61277485 0.20355582 0.13006456 0.07926517 0.09310888 -0.505068 0.11815599 -0.11839134
-0.32307708 0.023227358 -0.44917643 0.04474063 -0.6550881 -0.08046392 0.09460033 0.10896856
-0.0033150075 -0.313836 0.034167927 0.24071863 -0.077209614 -0.06542084 -0.14528005 0.044067346
-0.09212046 -0.041320685 -0.47310755 -0.083647706 0.021209497 0.004515068 0.055480123 0.055622824
-0.31071115 -0.06196771 -0.04229298 -0.27173227 0.058638822 -0.9641733 -0.11482777 -0.11633585
0.102872364 0.08387113 -0.027462525 -0.14056863 -0.006738128 -0.1903411 0.06590945 -0.39435804
0.05143516 0.18765306 -0.21590385 -0.103584886 -0.19151828 -0.3011448 -0.12142656 0.14979854
-0.12236233 -0.7495058 -0.25484127 0.046202537 -0.01598669 0.016684273 0.06039708 -0.8142312
0.061910056 0.06308457 0.07292638 -0.22373885 0.118636966 -0.38403448 -0.13271588 0.12299462
0.09765494 -0.100418106 0.1637412 0.21039915 -0.24582425 -0.31779805 0.058824226 0.13461252
0.01761578 -0.29058078 0.039207604 0.10129832 0.13160051 -0.8809212 -0.18553573 -0.038872935
0.025267899 0.20906907 0.12282722 -0.17644091 -0.3054188 -0.0041211685 -0.20579034 0.071154565
0.110675044 -0.017397977 -0.26167303 -0.10397618 0.049951807 0.07600561 -0.44390237 -0.06778907
-0.6449106 -0.48731983 -0.09312553 0.10578764 -0.20349996 0.1843559 -0.03040067 0.014696357
-0.04654393 -0.0030312424 0.06815197 -0.1382013 0.120824315 -0.10512361 0.07105584 -0.11295099
0.010122475 0.020616367 -0.05697287 -0.78678674 -0.13572855 0.1164797 0.08593328 -0.2098932
-0.2605554 -0.26910505 0.030408498 0.2384041 -0.093641944 -0.35847798 -0.14096089 0.023469819
0.00075217645 -0.593124 -0.041597955 -0.10723079 0.13491748 0.2563013 -0.31936818 -0.15752377
0.18601725 -0.998023 -0.5934 -0.1606283 -0.14414516 -0.3171436 0.115378 -0.5514353
0.13213344 -0.120722644 -0.04359054 -0.20607288 -0.008567786 -0.18733115 0.089654505 0.031700358
00000000: f140 333e 8095 c3be a2a4 683e 6772 edbc
00000010: c15a fa3c 3874 fb3d 6656 3abf b18c b93d
00000020: 2fb1 81be 189b 96bd e567 52be f0db ecbe
00000030: ee17 e9bd 8cc2 953b 5e12 0dbf 9604 803d
00000040: 5c92 c03c a181 e3bc 6dbd ad3d a2c0 f4bd
00000050: 4ebc d4bd 58d9 9a3d 8905 b0be 9d3f bbbd
00000060: 50e7 a1be 4752 833d 4356 d3bd 75a0 19bc
00000070: ddda f8bd d072 1e3e 1e0c dfba d54e e73d
00000080: 5039 d8be 6040 93be b29b 17be b682 c8be
00000090: 5fd0 06bf a2f4 60be b619 aebd 4896 28be
000000a0: 2d5c c43d 68ff 3abd 92a1 87bd e8ee 12bd
000000b0: febf 4fbe 28db 91bd e9c1 9dbe 443f 9c3c
000000c0: eeb7 4ebd f122 f63d 4595 073d aa22 b3bd
000000d0: cd6a 323e a7e7 37bc ec4e 083e 9c22 dc3d
000000e0: 848a 8bbc ee79 1dbd af03 803d ae45 81be
000000f0: 6e81 9abe 35b1 5e3c 65a7 97bc 8ed4 de3d
00000100: d0f8 fdbb fca1 093e 8740 b63d 5ff8 803d
00000110: deb8 5c3d 4814 b8bd 9481 4b3c a531 a5bd
00000120: ee64 d83d ebf2 08be 3f49 163d 7017 353d
00000130: 112a e93d ee45 84bd 833b 1f3d 6de6 1abf
00000140: 66c8 b6bd 71a8 1a3d 40d3 193e 1d2b 54be
00000150: 30db 38be cefb 8e3d c811 123e 9e70 13bb
00000160: b522 71bd 06ec efbb fd69 b23d 14cf 9d3b
00000170: 80b3 ffbe 81a5 7c3d dc03 703e 05b0 f7be
00000180: d0de 1cbf f070 503e a52f 053e c755 a23d
00000190: deaf be3d 234c 01bf c5fb f13d 2977 f2bd
000001a0: 5c6a a5be 4d47 be3c 74fa e5be f341 373d
000001b0: dbb3 27bf 45ca a4bd d1bd c13d e92a df3d
000001c0: 9940 59bb 1daf a0be abf3 0b3d f27e 763e
000001d0: 1320 9ebd 5dfb 85bd 4bc4 14be f67f 343d
000001e0: a7a9 bcbd e13f 29bd 273b f2be 7d4f abbd
000001f0: 8abf ad3c 23f3 933b 203f 633d c2d4 633d
00000200: 8815 9fbe dad1 7dbd 673b 2dbd 7e20 8bbe
00000210: 432f 703d 10d4 76bf d22a ebbd 7d41 eebd
00000220: bfae d23d a1c4 ab3d 17f9 e0bc 39f1 0fbe
00000230: 84cb dcbb c7e8 42be 89fb 863d 4ce9 c9be
00000240: adad 523d 2028 403e e615 5dbe 5024 d4bd
00000250: 5e1d 44be a72f 9abe 7dae f8bd ca64 193e
00000260: 1a99 fabd 9ddf 3fbf 8e7a 82be df3e 3d3d
00000270: 85f6 82bc 75ad 883c ee62 773d 7571 50bf
00000280: 6695 7d3d 7c32 813d 6d5a 953d cc1b 65be
00000290: f0f7 f23d 2ba0 c4be ace6 07be 9ae4 fb3d
000002a0: 50ff c73d 02a8 cdbd c6ab 273e e072 573e
000002b0: 5ab9 7bbe 6db6 a2be acf1 703d ddd7 093e
000002c0: f84e 903c 01c7 94be 2798 203d 7e75 cf3d
000002d0: 49c2 063e 0d84 61bf 14fd 3dbe 3a39 1fbd
000002e0: a0fe ce3c 3416 563e d68c fb3d edac 34be
000002f0: da5f 9cbe de0a 87bb b4ba 52be 7cb9 913d
00000300: 99a9 e23d 3486 8ebc 02fa 85be 77f1 d4bd
00000310: 449a 4c3d d4a8 9b3d 2c47 e3be ffd4 8abd
00000320: dc18 25bf fc81 f9be 99b8 bebd 31a7 d83d
00000330: 4b62 50be cbc7 3c3e d30a f9bc fdc8 703c
00000340: d9a4 3ebd cfa7 46bb 4393 8b3d a484 0dbe
00000350: bd72 f73d 0c4b d7bd b985 913d d952 e7bd
00000360: bdd8 253c a8e3 a83c 625c 69bd db6a 49bf
00000370: 6dfc 0abe e98c ee3d cafd af3d 3eee 56be
00000380: 8467 85be 23c8 89be 3e1b f93c 3420 743e
00000390: 59c7 bfbd 6d8a b7be 0d58 10be c743 c03c
000003a0: b52d 453a f9d6 17bf 9e62 2abd d19b dbbd
000003b0: cf27 0a3e ed39 833e 3a84 a3be e94d 21be
000003c0: 4e7b 3e3e 6f7e 7fbf 10e9 17bf bf7b 24be
000003d0: ca9a 13be a560 a2be 4d4b ec3d dd2a 0dbf
000003e0: fd4d 073e 6f3d f7bd fe8b 32bd c504 53be
000003f0: e65f 0cbc bdd3 3fbe c89c b73d 3cd8 013d

l3.bias f4 [62]
0.004945111 -0.023727754 0.10290171 -0.075897895 -0.0727657 -0.2929591 -0.02065081 -0.02836226
-0.06631168 0.022057276 -0.092324406 -0.10669756 -0.1841345 0.0653142 -0.18084979 0.04229141
-0.06173753 0.025328198 0.109914035 -0.06564677 -0.099828385 -0.10449536 -0.007776014 0.08430529
-0.13648741 0.075002134 -0.037983008 0.030186944 -0.28081056 0.01279964 0.13002495 -0.09298356
0.098411106 -0.07493931 -0.22122559 -0.2113095 -0.20705318 0.016015785 -0.12896982 -0.09848328
-0.16206644 0.068959855 -0.3236213 -0.1632355 0.022338673 -0.024661783 0.03897534 -0.106439814
-0.17830966 -0.17541371 -0.37994495 -0.011886005 -0.16880457 -0.1386117 0.11132718 0.031929195
-0.07747799 -0.013903023 -0.109113514 -0.04420466 -0.44175214 -0.18540496
00000000: 990a a23b b560 c2bc 22be d23d 5b70 9bbd
00000010: 2f06 95bd bcfe 95be e32b a9bc f857 e8bc
00000020: 6bce 87bd 76b1 b43c 9414 bdbd 4084 dabd
00000030: c18d 3cbe 74c3 853d b030 39be c239 2d3d
00000040: 7ee0 7cbd 157d cf3c 9c1a e13d d071 86bd
00000050: d372 ccbd aa01 d6bd efcd febb 40a8 ac3d
00000060: 5bc3 0bbe b89a 993d 1294 1bbd 9c4a f73c
00000070: 67c6 8fbe 95b5 513c 4325 053e 2a6e bebd
00000080: c38b c93d c879 99bd f688 62be 8461 58be
00000090: c005 54be 8933 833c aa10 04be 9ab1 c9bd
000000a0: bff4 25be d33a 8d3d b1b1 a5be 3527 27be
000000b0: 98ff b63c 8207 cabc 9ba4 1f3d 1efd d9bd
000000c0: cf96 36be a79f 33be 2588 c2be 85bd 42bc
000000d0: 1bdb 2cbe 3af0 0dbe 81ff e33d 30c8 023d
000000e0: c8ac 9ebd 81c9 63bc e876 dfbd f20f 35bd
000000f0: 562d e2be ccda 3dbe
